…
task:  task_2_pannet_subtyping
max_epochs:  50
results_dir:  ./results
lr:  0.0002
experiment:  task_2_pannet_subtyping_CLAM_100
reg:  1e-05
label_frac:  1.0
bag_loss:  ce
seed:  1
model_type:  clam_mb
model_size:  small
use_drop_out:  True
weighted_sample:  True
opt:  adam
bag_weight:  0.7
inst_loss:  svm
B:  8
split_dir:  splits/task_2_pannet_subtyping_100/

Training Fold 0!

Init train/val/test splits... 
Done!
Training on 17 samples
Validating on 1 samples
Testing on 1 samples

Init loss function... Done!

Init Model... Setting tau to 1.0
Done!
CLAM_MB(
  (attention_net): Sequential(
    (0): Linear(in_features=1024, out_features=512, bias=True)
    (1): ReLU()
    (2): Dropout(p=0.25, inplace=False)
    (3): Attn_Net_Gated(
      (attention_a): Sequential(
        (0): Linear(in_features=512, out_features=256, bias=True)
        (1): Tanh()
        (2): Dropout(p=0.25, inplace=False)
      )
      (attention_b): Sequential(
        (0): Linear(in_features=512, out_features=256, bias=True)
        (1): Sigmoid()
        (2): Dropout(p=0.25, inplace=False)
      )
      (attention_c): Linear(in_features=256, out_features=3, bias=True)
    )
  )
  (classifiers): ModuleList(
    (0): Linear(in_features=512, out_features=1, bias=True)
    (1): Linear(in_features=512, out_features=1, bias=True)
    (2): Linear(in_features=512, out_features=1, bias=True)
  )
  (instance_classifiers): ModuleList(
    (0): Linear(in_features=512, out_features=2, bias=True)
    (1): Linear(in_features=512, out_features=2, bias=True)
    (2): Linear(in_features=512, out_features=2, bias=True)
  )
  (instance_loss_fn): SmoothTop1SVM()
)
Total number of parameters: 792844
Total number of trainable parameters: 792844

Init optimizer ... Done!

Init Loaders... Done!

Setup EarlyStopping... Done!




class 0 clustering acc 0.9166666666666666: correct 374/408
class 1 clustering acc 0.10294117647058823: correct 14/136
Epoch: 0, train_loss: 1.0357, train_clustering_loss:  1.1461, train_error: 0.4706
…
